GNN_static/Models/GNN_model_18GHz.pth (torch, 115724 bytes, 94 tensors)

conv_1.att_src f4 [1, 4, 8]
0	0xbf59b6e7	-0.8504471
1	0xbf15a1b0	-0.5844984
2	0xc014560a	-2.3177514
3	0xbfdab39d	-1.7086064
4	0x3e292cf5	0.16521056
5	0x3fbe104e	1.4848726
6	0x3febae10	1.8412495
7	0xbf15066d	-0.5821293
8	0x3f17800e	0.5917977
9	0x3f35ba5a	0.70987475
10	0x3f2eef33	0.6833374
11	0xbec0951b	-0.37613758
12	0xbe70adb1	-0.23503758
13	0x3f08bc63	0.53412455
14	0x3f0cfc74	0.5507271
15	0x3e070d1b	0.13188593
16	0x3f7b9f04	0.98289514
17	0x3e1bb90b	0.15207307
18	0xbf75ec1f	-0.9606342
19	0xbf5ddf97	-0.86669296
20	0xbf331324	-0.6995108
21	0x3c987740	0.01861155
22	0x3ed54cdb	0.416602
23	0xbef7bfdf	-0.48388574
24	0x3f708e65	0.93967277
25	0xbc900996	-0.017582696
26	0x3f33837e	0.70122516
27	0x3f1b64fa	0.60700953
28	0xbf2f238a	-0.68413603
29	0xbee25c45	-0.4421102
30	0xbf77e9e6	-0.96841276
31	0x3faa8416	1.332156

conv_1.att_dst f4 [1, 4, 8]
0	0x3f3b50c9	0.73170143
1	0x3f1d0e69	0.61350113
2	0xbf8a296c	-1.0793891
3	0xbe64f4c5	-0.22358997
4	0xbf1de8ad	-0.6168316
5	0xbdab6f86	-0.08370881
6	0x3e4b3a5f	0.19846486
7	0xbf57522e	-0.8410977
8	0xbef59939	-0.47968462
9	0x3e992a42	0.29915053
10	0xbfb4f6bd	-1.4137799
11	0xbf6d1e0f	-0.9262399
12	0xbe827532	-0.25480038
13	0x3f508c18	0.81463766
14	0x3f3676c4	0.7127497
15	0xbf5747ec	-0.8409412
16	0xbec9e0eb	-0.3942941
17	0x3f23b6cb	0.63950795
18	0x3fbf51d5	1.4946848
19	0xbf989970	-1.1921825
20	0x3d06939d	0.03285562
21	0xbeb759a8	-0.3581059
22	0x3f136785	0.57579833
23	0xbf5231d3	-0.82107276
24	0x3f2408fc	0.6407621
25	0xbf1c1315	-0.60966617
26	0xbf348d75	-0.70528346
27	0x3f04046a	0.51569235
28	0xbf52131f	-0.82060426
29	0x3f09e7f2	0.53869545
30	0xbdc1a805	-0.09455875
31	0xbf789bb0	-0.9711256

conv_1.bias f4 [32]
0	0x3c261e9b	0.010139133
1	0x3c5b7e95	0.013396879
2	0x3c5ce49c	0.013482239
3	0x3c1c8221	0.0095525095
4	0x3af9c73a	0.0019056567
5	0x3a71be94	0.0009221819
6	0x3bb4b36a	0.005514552
7	0x38d7317d	0.00010261217
8	0xbc850bdb	-0.016241005
9	0x3c87520a	0.016518611
10	0x3c67cc1b	0.014147784
11	0x3c626787	0.013818628
12	0xbc01defa	-0.007926697
13	0xbc3516c1	-0.011052788
14	0xbc2a2e83	-0.010387066
15	0x3aa6c22d	0.0012722664
16	0x3bdbaf9e	0.006704285
17	0x3bcd2077	0.0062599736
18	0x3940027f	0.00018311477
19	0x3ae9b6a3	0.0017830919
20	0xbaf638f9	-0.001878529
21	0xbb5dce2b	-0.003384481
22	0x3bbb8ec9	0.0057238084
23	0xb93a8a1c	-0.00017789792
24	0x3b64acf5	0.003489313
25	0xbb063681	-0.0020479264
26	0x3c1619eb	0.009161453
27	0xbb941bfc	-0.0045199376
28	0xbbb9329c	-0.005651785
29	0x3ca561a1	0.020188155
30	0xbcf8e1a4	-0.030381031
31	0x3a0bf352	0.0005338687

conv_1.lin.weight f4 [32, 27]
0	0x3d2014c7	0.039082315
1	0xbf26cfd5	-0.65160877
2	0xbe23b0f8	-0.15985477
3	0x3f9515a1	1.1647226
4	0x3d9bdf42	0.076109424
5	0x3ea96413	0.33084163
6	0x3ea426d4	0.32060874
7	0xc011edab	-2.280131
8	0xc0656500	-3.5842896
9	0x3f10e506	0.5659946
10	0xbd10764a	-0.03526906
11	0x3d6b0d26	0.057385586
12	0xbe11b4bc	-0.14229101
13	0xbe34ffd6	-0.17675719
14	0x3eb2e3e0	0.3493948
15	0x3e55a6c6	0.208644
16	0x3e10774e	0.14108011
17	0xbebdc56a	-0.37064677
18	0xbcf0c73d	-0.02939188
19	0xbe2d863e	-0.1694574
20	0xbe3182fa	-0.1733512
21	0x3d94fb9e	0.07274555
22	0x3d280b9c	0.041026697
23	0xbdd13b1b	-0.102163516
24	0xbda869fa	-0.082233384
25	0x3f84aa0e	1.0364397
26	0x3b027dc2	0.0019911383
27	0xbe01d123	-0.12677436
28	0x3ddc5e9d	0.107602336
29	0x3df34cd3	0.118798874
30	0xbe3f94c4	-0.18709093
31	0xbeede6f3	-0.46465263
32	0x3f5ad414	0.85479856
33	0x3f109f19	0.56492764
34	0xbede2f1c	-0.43395317
35	0xbfbe76f0	-1.4880047
36	0xbe21d1c0	-0.1580267
37	0x3d0bdc89	0.034145866
38	0x3e67eb72	0.22648409
39	0x3f42369a	0.75864565
40	0xbf188d00	-0.5959015
41	0xbf3ce68c	-0.73789287
42	0x3f3fadb9	0.74874455
43	0xbee56dfe	-0.4481048
44	0xbed061ef	-0.40699717
45	0xbf110885	-0.56653625
46	0x3d84d807	0.064865164
47	0x3e36877a	0.17825118
48	0x3cf8bc0f	0.03036311
49	0x3a915796	0.0011088725
50	0xbec85646	-0.3912832
51	0xbe88f663	-0.26750478
52	0x3fa2f4b2	1.2730925
53	0xbf59fd2b	-0.8515193
54	0xc04ded7a	-3.2176194
55	0x3eb3dc55	0.35129037
56	0xbc99168d	-0.01868751
57	0x3e32a699	0.17446364
58	0x3be2de71	0.0069234897
59	0xbd1df3f2	-0.038562723
60	0xbde2f935	-0.11082689
61	0x3fab4955	1.3381754
62	0xbf39cc70	-0.7257757
63	0x3e5fd37c	0.21858019
64	0xbe60f5d3	-0.21968774
65	0x3e20e852	0.15713623
66	0xbe561b0e	-0.20908758
67	0x3db3363d	0.087505795
68	0x3e0c934c	0.13728064
69	0x3e9a52cd	0.30141297
70	0xbe04646b	-0.12928931
71	0x3da0b989	0.07847888
72	0x3e7787fb	0.24172966
73	0x3e440aa2	0.19144681
74	0xbe2e6465	-0.17030485
75	0x3d8cfdb8	0.068843305
76	0xbe04a1ea	-0.1295239
77	0x3d2f6d8a	0.042829074
78	0x3d061032	0.03273029
79	0x40304e9a	2.7547975
80	0x3ed5c2d7	0.41750214
81	0xbf344c7f	-0.70429224
82	0x3e2038e1	0.15646698
83	0xbeb26cf9	-0.34848765
84	0xbf41e223	-0.7573568
85	0xbe288872	-0.164583
86	0xbc3d6554	-0.011559803
87	0xbdeed86d	-0.11662374
88	0x3e79a990	0.24381089
89	0xc06300ba	-3.5469193
90	0x3f1c8d0f	0.6115274
91	0xbed9005e	-0.42383093
92	0xbf00ef3d	-0.5036505
93	0x3f22c985	0.63588744
94	0xbcebc1d1	-0.028778942
95	0xbe1b1fde	-0.15148875
96	0x3ee65707	0.44988272
97	0xbeec618d	-0.46168175
98	0xbf2c606d	-0.67334634
99	0xbe251220	-0.16120195
100	0x3d879298	0.066197574
101	0x3df0c092	0.1175548
102	0x3e55e057	0.2088636
103	0x3d024c19	0.031810854
104	0xbe4b3c83	-0.19847302
105	0x3f327d69	0.6972261
106	0x3dbab523	0.0911658
107	0x3ebfe439	0.37478808
108	0xbe6c50b3	-0.2307766
109	0xbe5b6305	-0.21424492
110	0x3eea5e4f	0.45775077
111	0x3e9f614f	0.31128928
112	0xbe3f4604	-0.18679053
113	0xbe61e496	-0.22059855
114	0xbf8d1bcd	-1.1024109
115	0x3ec1f92c	0.37885416
116	0x3f1e6652	0.6187488
117	0xbe70f889	-0.23532309
118	0x3e392da4	0.18083817
119	0xbe3e9b91	-0.18614031
120	0xbf4f05d7	-0.80868286
121	0x3edfd3ea	0.43716365
122	0x3f1d6589	0.61483055
123	0x3c985b70	0.018598288
124	0x3f4c86d9	0.7989326
125	0x3e3dcd32	0.18535307
126	0x3e59d0e2	0.21271089
127	0xbf681616	-0.906587
128	0xbd7440c9	-0.059632096
129	0xbc81cb6d	-0.015844071
130	0x3c50909f	0.012729793
131	0x3e3be321	0.18348362
132	0xbf9393ac	-1.1529441
133	0x3fae757f	1.3629607
134	0x3f329e76	0.6977304
135	0x4021d7cc	2.5287962
136	0x3c24914b	0.010044406
137	0xbc29e7bd	-0.010370192
138	0x3f026e3d	0.5094946
139	0xbdb56bd8	-0.0885846
140	0xbfbb09e7	-1.4612397
141	0xbfb2a105	-1.3955389
142	0x3ed9f3a2	0.4256869
143	0x4083aa98	4.1145744
144	0xbea424e9	-0.3205941
145	0xbeb3993d	-0.3507785
146	0x3ecaf80c	0.3964237
147	0xbf038ee2	-0.51389897
148	0x3ecf5649	0.40495518
149	0x3e6e51c1	0.23273374
150	0xbf06e3b0	-0.52691174
151	0x3f285c8b	0.6576621
152	0x3f83393e	1.0251844
153	0x3f217efe	0.630844
154	0x3df5261a	0.11970158
155	0xbe941c00	-0.28927612
156	0xbec286b1	-0.37993386
157	0x3e296205	0.16541298
158	0xbc899944	-0.016796716
159	0xbee2f72a	-0.44329196
160	0xbfef4983	-1.8694309
161	0x3dacdd3d	0.08440635
162	0x3f9bf97f	1.2185515
163	0xbeef1aba	-0.46700078
164	0xbd5ac7f0	-0.05341333
165	0xbd102544	-0.03519179
166	0x3d9e9b32	0.07744445
167	0x3f1ba604	0.60800195
168	0xbf35b7f0	-0.7098379
169	0x3da32d71	0.07967652
170	0x4006085c	2.0942602
171	0xbea56455	-0.3230311
172	0xbc3e3c5c	-0.0116110705
173	0xbeadeeeb	-0.33971342
174	0xbc8f296b	-0.017475804
175	0xbe81660f	-0.25273177
176	0x3e15b321	0.14619114
177	0xbec2160f	-0.37907454
178	0xbced46d7	-0.028964443
179	0x3e8f09db	0.27937207
180	0x3eaa2483	0.3323098
181	0x3ebb509f	0.36584947
182	0x3d9619e8	0.0732916
183	0xbe6be15e	-0.2303519
184	0x3de1e256	0.11029498
185	0x3e14e425	0.14540155
186	0x3dec5a82	0.115407005
187	0xbfc2827c	-1.5196071
188	0x3eb1f07a	0.34753782
189	0xbf6b7e4b	-0.9198958
190	0xbe2c4fdd	-0.1682734
191	0x3ed36fec	0.41296327
192	0x3ec0b8fa	0.37641126
193	0xbec2f87d	-0.38080207
194	0x3da78747	0.08180099
195	0xbba5f437	-0.005064513
196	0xbefa967a	-0.4894293
197	0xbf386ef5	-0.72044307
198	0xbe49f2f9	-0.19721593
199	0x3e588249	0.2114345
200	0x3f229a88	0.63517046
201	0xbf149820	-0.58044624
202	0x3e2d495d	0.16922517
203	0xbe3241ac	-0.17407864
204	0x3e8000c1	0.25000575
205	0xbe7743c7	-0.24146949
206	0x3cdd07ad	0.0269812
207	0xbd892405	-0.06696323
208	0x3e31b8c5	0.1735564
209	0xbc01c091	-0.007919447
210	0x3cb6d3f5	0.022317866
211	0xbeb2d1cd	-0.3492569
212	0x3e8f8dd9	0.2803791
213	0xbf8d888f	-1.1057299
214	0x3f114e5e	0.56760204
215	0xbeb578c8	-0.3544371
216	0xbfdc7eb9	-1.7226173
217	0xbe1fea78	-0.15616786
218	0x3e766db6	0.24065289
219	0x3f390625	0.72275
220	0x3f1d4fd4	0.61449933
221	0x3e0280b5	0.1274441
222	0x3b50ea42	0.003187791
223	0x3e6cb3a3	0.23115401
224	0x3fa45558	1.2838545
225	0xbd8e7f09	-0.06957824
226	0x3e0010c8	0.12506402
227	0xbda63171	-0.08114899
228	0x3ebb8e12	0.3663183
229	0xbead82fa	-0.3388899
230	0x3e9458b0	0.28973913
231	0x3e798d1e	0.24370238
232	0x3e1d19f8	0.15341938
233	0xbd9a731f	-0.07541489
234	0x3d90e4c6	0.07074885
235	0xbee8abe5	-0.45443645
236	0x3ea8eacc	0.32991636
237	0x3dffee77	0.124966554
238	0xbec209b6	-0.37898034
239	0x3e3820b2	0.17981222
240	0x3d55940b	0.052143138
241	0x3dd33357	0.10312527
242	0xbe3f1252	-0.18659332
243	0xbdf7d1b5	-0.12100545
244	0x3e95ba08	0.29243493
245	0xbf093039	-0.53589207
246	0x3f81c859	1.0139266
247	0x3d855644	0.065105945
248	0xba82ffd5	-0.0009994457
249	0xbfb3e22f	-1.4053401
250	0x3f5cf3f9	0.8630977
251	0x3ebb4d82	0.3658257
252	0xbe03aaf2	-0.12858179
253	0x3e043ebb	0.12914555
254	0x3e8f80e0	0.2802801
255	0xbedd94c9	-0.43277577

conv_2.att_src f4 [1, 4, 16]
0	0xbde42c3c	-0.111412495
1	0xbee1e114	-0.44117033
2	0xbeb22a25	-0.3479778
3	0x3d877111	0.066133626
4	0x3e3e3d75	0.18578131
5	0xbe0ad549	-0.13557924
6	0x3dd43e93	0.103634976
7	0xbedba49f	-0.42899033
8	0x3f2b2f1e	0.6686877
9	0x3fcff817	1.6247586
10	0xbf52d362	-0.82353795
11	0xbea56376	-0.32302445
12	0xbfad0c5b	-1.3519396
13	0xbf15ece5	-0.585646
14	0xbf4c35c1	-0.7976952
15	0x3e1d5ad6	0.15366682
16	0x3f025735	0.5091432
17	0xbf39cc43	-0.72577304
18	0x3e921201	0.2852936
19	0x3e048548	0.12941468
20	0xbf480722	-0.78135884
21	0xbf868562	-1.0509455
22	0xbf788f05	-0.9709323
23	0x3f9dbb92	1.2322867
24	0xbdef2b9b	-0.11678239
25	0x3da807f7	0.08204644
26	0xbf5454fd	-0.8294218
27	0xbf5300eb	-0.82423276
28	0xbf8990c4	-1.0747304
29	0xbf1db2a6	-0.6160072
30	0x3dd0ee96	0.10201757
31	0x3f6eadd8	0.93234015
32	0x3f83a617	1.0285062
33	0xbf1a6c20	-0.60321236
34	0x3f58bce7	0.8466324
35	0xbea4dfe4	-0.32202065
36	0x3e9520ac	0.2912649
37	0x3da66ba2	0.08125998
38	0x3f847010	1.0346699
39	0x3e5c8213	0.21533994
40	0x3f9d26aa	1.2277424
41	0xbeed2da0	-0.46323872
42	0xbf1f9da5	-0.6234992
43	0x3efece3a	0.49766713
44	0x3b245bab	0.0025079052
45	0xbf644eab	-0.8918254
46	0xbe9a34c7	-0.3011839
47	0x3f95b25d	1.1695057
48	0x3ffa95d4	1.9576974
49	0x3fe61d02	1.7977602
50	0xbf443458	-0.7664237
51	0xbf35834c	-0.7090347
52	0xbfb2d3dd	-1.3970906
53	0xbe869ec2	-0.26292998
54	0x3f0b39e8	0.5438523
55	0xbf0a0a50	-0.53921986
56	0xbf4d4658	-0.8018546
57	0x3fcd05d8	1.6017408
58	0xbea238b0	-0.31683874
59	0xbf41f91b	-0.7577073
60	0xc0140116	-2.3125663
61	0xbf0c5fb6	-0.54833543
62	0x3e8a820e	0.2705235
63	0x3f1a4c8e	0.60273063

conv_2.att_dst f4 [1, 4, 16]
0	0x3f1009c4	0.562649
1	0xbeac186a	-0.33612376
2	0xbe9120ac	-0.2834524
3	0x3db3462a	0.08753617
4	0x3f6f920d	0.9358223
5	0x3e84fced	0.25974217
6	0xbf354cd6	-0.7082037
7	0x3eabeca2	0.33578974
8	0xbf05a757	-0.52208465
9	0x3ef094f3	0.4698864
10	0x3f8e002a	1.10938
11	0x3ef71cfb	0.48264298
12	0xbecf7a07	-0.40522787
13	0x3f2ca906	0.6744541
14	0x3d400a21	0.04688466
15	0x3edc0589	0.42972973
16	0x3e65fe55	0.22460301
17	0x3d2f72bb	0.042834025
18	0x3ef12048	0.4709494
19	0xbd9ef338	-0.07761234
20	0xbf25bc0f	-0.6474008
21	0xbf5a4703	-0.85264605
22	0xbd9a3f7a	-0.075316384
23	0xbc0bbd51	-0.008529023
24	0xbed29880	-0.41131973
25	0xbef0214a	-0.46900398
26	0xbe9dd1b9	-0.30824068
27	0xbf33289c	-0.6998384
28	0xbf010552	-0.50398743
29	0x3da0cbbe	0.07851361
30	0xbee5981c	-0.44842613
31	0x3ec5b263	0.3861266
32	0xbe09488c	-0.1340658
33	0x3f2717a8	0.6527047
34	0x3ddd913c	0.10818717
35	0x3deb665a	0.114941314
36	0xbea17919	-0.31537703
37	0xbd81698e	-0.06318961
38	0x3ef94fcc	0.48693693
39	0xbef374f7	-0.47550175
40	0x3e1cc91b	0.1531109
41	0xbf1069cb	-0.5641143
42	0xbf21f395	-0.632623
43	0x3ed5334d	0.41640702
44	0xbd15c3cc	-0.03656368
45	0x3e5643f2	0.20924357
46	0x3f109339	0.56474644
47	0x3e9162c7	0.28395674
48	0x3da31861	0.07963634
49	0xbe955e12	-0.29173332
50	0xbff4207a	-1.9072411
51	0x3f7a2a4e	0.977208
52	0xbf884721	-1.0646707
53	0xbf004a76	-0.5011362
54	0x3e923149	0.28553227
55	0x3f9e2913	1.2356285
56	0xbec6c0d2	-0.38818985
57	0xbf172ff8	-0.5905757
58	0x3fdaa4c1	1.7081529
59	0x3f00d8b1	0.50330645
60	0x3f1b4b01	0.6066132
61	0x3e987662	0.2977782
62	0xbfb9fe37	-1.4530705
63	0x3efba36f	0.49148127

conv_2.bias f4 [64]
0	0xbbac00da	-0.005249125
1	0x3aca9738	0.0015456444
2	0xbc273148	-0.010204621
3	0x3c1dcd9e	0.0096315425
4	0x3b0291b0	0.0019923262
5	0xbb944d98	-0.0045258515
6	0xbb42998a	-0.0029693567
7	0xbb6ba06e	-0.0035953778
8	0xbc655dac	-0.013999384
9	0x3a998224	0.0011711759
10	0x3ba13d6f	0.0049206535
11	0x3aa40efa	0.001251667
12	0xbcd30acf	-0.02576199
13	0x38f2ea35	0.00011583084
14	0x3c2b3174	0.010448802
15	0x3ae30300	0.001731962
16	0x3baf681a	0.005352986
17	0xbc06095e	-0.008180944
18	0x3bb2dacc	0.0054582115
19	0x3c4ca8a8	0.012491383
20	0x3b8995c3	0.004198761
21	0xbc2ebd10	-0.010665193
22	0xbbf480e3	-0.0074616536
23	0x3ac08769	0.0014688793
24	0xbae95bec	-0.0017803884
25	0x3ba6df1e	0.0050925156
26	0x3c3743d4	0.011185605
27	0xb996b8ed	-0.0002874801
28	0xbb9434c1	-0.0045228903
29	0xbbcc7b09	-0.006240253
30	0x3bec65e1	0.0072142933
31	0xba9ec273	-0.0012112394
32	0xbc1f2e6a	-0.009715656
33	0xbb90be23	-0.0044171973
34	0xbbb2425e	-0.0054400405
35	0xbbd82ddb	-0.0065972633
36	0x3c0dbaca	0.008650491
37	0xbabe86a0	-0.0014535971
38	0xbb8eab4e	-0.004353917
39	0x3b972138	0.0046121143
40	0xbc29811d	-0.010345724
41	0x3be49f0f	0.006976969
42	0x3b31248f	0.0027029847
43	0xbc188b03	-0.009310487
44	0xbc965d2c	-0.018354975
45	0xbbe510ef	-0.006990544
46	0x3c842e8f	0.016135482
47	0xbaa48ac1	-0.0012553559
48	0xbbe15a62	-0.0068772295
49	0xbb1bd76e	-0.002377953
50	0x3b62fded	0.0034636215
51	0x39214985	0.00015381545
52	0xbac1131a	-0.0014730424
53	0xbb8ee147	-0.0043603512
54	0xbaf09180	-0.0018353909
55	0x3c237b91	0.009978191
56	0xbc0438fa	-0.008070225
57	0x3b0640ce	0.0020485404
58	0xbac2feb8	-0.0014876937
59	0xbcc5f1d3	-0.024163162
60	0x3acaf629	0.0015484738
61	0xbc88a5a7	-0.016680552
62	0x3b2e8fa1	0.0026635902
63	0x3b886dee	0.0041634953

conv_2.lin.weight f4 [64, 32]
0	0xbced65b5	-0.028979162
1	0xbf1c0156	-0.6093954
2	0xbc9feb0b	-0.019521257
3	0xbe1cc970	-0.15311217
4	0x3e9c0c1d	0.30477992
5	0xbed0621b	-0.4069985
6	0x3c459f80	0.012061954
7	0xbda385cb	-0.07984503
8	0xbe2115f4	-0.1573103
9	0xbe77db10	-0.2420466
10	0x3f058d3f	0.5216865
11	0xbec3ef92	-0.38268715
12	0xbbf4bd4c	-0.007468855
13	0x3e83c7f8	0.25738502
14	0xbe362b12	-0.17789868
15	0x3e4ae956	0.19815573
16	0xbec3a38a	-0.38210708
17	0x3e3f26c5	0.18667133
18	0x3edcb9f5	0.43110624
19	0xbe331745	-0.17489345
20	0x3f00ec8f	0.5036096
21	0xbee02d46	-0.4378454
22	0xbedb0d60	-0.42783642
23	0x3d16b099	0.03678951
24	0xbc8d4160	-0.017243087
25	0xbe8017f2	-0.2501827
26	0xbe26cd17	-0.16289173
27	0x3e899523	0.26871595
28	0x3e8bdb06	0.2731554
29	0xbe9b9846	-0.30389613
30	0xbd28d9cb	-0.04122333
31	0x3d689313	0.056780886
32	0x3e3c8ac3	0.18412308
33	0xbef9491e	-0.48688596
34	0xbf26ef61	-0.65209013
35	0xbe44a8d4	-0.19205028
36	0xbd6e7e1b	-0.058225732
37	0xbeaec8f9	-0.34137705
38	0xbf187eeb	-0.5956866
39	0xbe5e5ef6	-0.21715912
40	0xbe2452fc	-0.16047281
41	0xbe619399	-0.2202896
42	0xbe1fccec	-0.15605515
43	0xbda59a57	-0.080860786
44	0x3e8ef353	0.27920017
45	0xbe9de969	-0.3084214
46	0x3d5cba19	0.053888414
47	0xbe19a463	-0.15004115
48	0x3d9d0655	0.07667223
49	0xbee67738	-0.45012832
50	0x3e2dbf61	0.16967537
51	0x3c0fcbd1	0.008776621
52	0xbe88d0c3	-0.26721773
53	0xbd7e8cb9	-0.062145922
54	0x3f050dd1	0.5197421
55	0x3e79ee53	0.2440732
56	0xbe39ff0f	-0.18163703
57	0xbeca1fab	-0.39477286
58	0xbe3137a6	-0.17306384
59	0x3c9558d1	0.018230828
60	0xbe64d41f	-0.22346543
61	0x3f09af6d	0.53783303
62	0xbe0e585c	-0.13900894
63	0x3e2e581b	0.17025797
64	0x3de54bdb	0.11196109
65	0xbecfb8af	-0.4057059
66	0xbd833501	-0.06406594
67	0xbdf9c6f1	-0.12196148
68	0x3db77318	0.08957499
69	0xbea27909	-0.31732967
70	0xbef9b3da	-0.48770028
71	0xbe5d1777	-0.21590982
72	0xbdf7852d	-0.12085948
73	0x3e23dc43	0.16001992
74	0xbd71f58a	-0.059072055
75	0x3de87597	0.113505535
76	0xbc8d1078	-0.017219767
77	0x3def7061	0.116913565
78	0xbd1da4a1	-0.03848708
79	0xbf08ee9e	-0.534891
80	0x3eae390c	0.34027898
81	0xbf1894c8	-0.5960202
82	0xbe307019	-0.17230262
83	0xbf01731e	-0.5056628
84	0x3d9a657d	0.075388886
85	0x3c8c4509	0.017122762
86	0xbdbead10	-0.09310353
87	0x3de9ef7c	0.11422631
88	0xbed79344	-0.42104542
89	0xbd868743	-0.06568768
90	0xbda56588	-0.08076006
91	0xbed36fb0	-0.41296148
92	0xbdb7ee58	-0.08981007
93	0xbe61a853	-0.22036867
94	0x3db61652	0.08890976
95	0x3d57f095	0.05271967
96	0xbdd84ab4	-0.105611235
97	0x3bd41a83	0.006472887
98	0x3e9fc05f	0.31201455
99	0xbe63da77	-0.22251306
100	0xbedeffbf	-0.43554494
101	0x3e8dfa67	0.27730104
102	0x3e774bc0	0.2414999
103	0xbe972bb5	-0.29525533
104	0x3ec2b109	0.38025692
105	0x3e76ed1c	0.24113888
106	0x3e6196ff	0.22030257
107	0xbe688964	-0.2270866
108	0xbcb2f37b	-0.021844616
109	0xbe09acf4	-0.13444883
110	0xbe9e540f	-0.30923507
111	0x3e2f538c	0.17121714
112	0xbda8aab4	-0.08235684
113	0x3d6ca027	0.05776992
114	0x3e2ec5fc	0.17067713
115	0x3d2ce169	0.042207155
116	0x3de2fbf9	0.11083216
117	0xbdd92f75	-0.10604755
118	0x3e48b7a9	0.19601311
119	0x3cb3e0bf	0.021957753
120	0x3ec669ab	0.38752493
121	0xbdf2367d	-0.11826799
122	0xbd05e5e2	-0.032689936
123	0x3edb7495	0.42862383
124	0x3d97ba09	0.0740853
125	0x3e800bc0	0.25008965
126	0x3dc343a7	0.09534388
127	0x3e72437f	0.2365856
128	0xbe1c242b	-0.15248172
129	0x3e54aa68	0.2076813
130	0xbdb71cdd	-0.08941052
131	0xbc0706b7	-0.008241347
132	0xbe277c8c	-0.16356105
133	0xbe7d69a8	-0.24747336
134	0xbcf74eba	-0.030188907
135	0xbe84dce6	-0.25949782
136	0xbea05bba	-0.31319982
137	0x3ed7b5c9	0.4213088
138	0xbe21b1c8	-0.15790474
139	0x3f217453	0.6306812
140	0x3edbfb1e	0.42965025
141	0x3d812d79	0.06307501
142	0xbf17afcc	-0.5925262
143	0xbe745b77	-0.23863016
144	0xbe3af931	-0.18259121
145	0xbe115427	-0.14192258
146	0x3e6560f2	0.22400263
147	0xbc8c10b8	-0.017097816
148	0x3e793ea4	0.24340302
149	0xbf14a7c6	-0.580685
150	0x3ed0795e	0.40717596
151	0x3f01b84c	0.5067184
152	0x3d92e56b	0.07172664
153	0x3eaa807f	0.3330116
154	0x3c0e64ce	0.008691026
155	0x3e65bb63	0.22434764
156	0xbea366c4	-0.3191434
157	0xbd40257f	-0.04691076
158	0x3e559bdf	0.20860241
159	0xbe494e7f	-0.1965885
160	0xbe3fb11c	-0.18719906
161	0x3dbbb31d	0.091650225
162	0xbd069038	-0.03285238
163	0x3edacdf3	0.42735252
164	0x3e042322	0.12904027
165	0x3d2ef1de	0.04271113
166	0x3e947777	0.28997394
167	0xbdc668f1	-0.09687985
168	0xbe0c9c4a	-0.13731495
169	0xbbec53e9	-0.0072121513
170	0xbe62b266	-0.22138366
171	0xbe7282b5	-0.23682673
172	0xbe4eec7a	-0.20207396
173	0x3e16883e	0.1470041
174	0x3e88d223	0.26722822
175	0xbebb16c0	-0.36540794
176	0x3e81e01b	0.2536629
177	0x3d8eef12	0.06979193
178	0x3ed4cc2e	0.41562027
179	0xbdf9d0a8	-0.12198001
180	0x3ef61754	0.48064673
181	0x3d293846	0.041313432
182	0x3edd1876	0.43182725
183	0x3e37fe69	0.17968144
184	0xbe03dae5	-0.1287647
185	0x3e37c1ad	0.17944975
186	0x3eb4a5c0	0.35282707
187	0xbdfbd63e	-0.12296723
188	0xbd181c7d	-0.037136544
189	0xbe135044	-0.14386088
190	0x3eeccdac	0.46250665
191	0xbe3b188d	-0.18271084
192	0xbe8b3717	-0.27190468
193	0xbcfea801	-0.03108597
194	0xbe6b54d8	-0.22981584
195	0xbe299a43	-0.16562752
196	0x3dceea8a	0.101033285
197	0xbdbd8aa8	-0.09254962
198	0x3d87898e	0.06618033
199	0x3e46aa76	0.19400963
200	0xbe1c8a8d	-0.15287228
201	0xbdf85ded	-0.1212729
202	0x3cfd0fbc	0.030891292
203	0xbdc64222	-0.096805826
204	0xbd6f1429	-0.058368836
205	0x3c151c9a	0.009101057
206	0x3eacfc5d	0.33786288
207	0x3c43137b	0.0119065
208	0xbdf149cb	-0.11781653
209	0x3e9c65bf	0.30546376
210	0xbdd0347d	-0.10166261
211	0x3e1239dd	0.14279886
212	0x3eeb6213	0.45973262
213	0xbe5496e7	-0.2076069
214	0x3f36701c	0.71264815
215	0x3bf6456a	0.007515599
216	0xbec2a77e	-0.3801841
217	0xbe31720e	-0.17328665
218	0x3eb36cf4	0.35044062
219	0xbd906176	-0.07049839
220	0xbdbeabc8	-0.093101084
221	0xbdc512a3	-0.09622695
222	0xbeb7535a	-0.3580578
223	0x3e714ef4	0.23565274
224	0x3e9b3b28	0.3031857
225	0xbcb70d2c	-0.022345148
226	0xbf1fe2f6	-0.6245569
227	0xbde88191	-0.11352838
228	0x3e10f4a2	0.1415582
229	0xbe55e2ee	-0.20887348
230	0xbd9b1fa2	-0.07574393
231	0xbe7af566	-0.24507675
232	0xbd8b564c	-0.06803569
233	0x3e2cdc12	0.16880825
234	0xbcfaf462	-0.030634109
235	0xbeb37e01	-0.3505707
236	0xbeaa2f71	-0.3323932
237	0xbe546d20	-0.20744753
238	0x3cf6b9b7	0.030117853
239	0xbede4c09	-0.43417385
240	0x3e54623f	0.20740603
241	0xbf043d18	-0.5165572
242	0x3db2c117	0.08728235
243	0xbe7c7e0b	-0.24657457
244	0xbe939b36	-0.28829354
245	0xbea2a556	-0.31766766
246	0xbef9da36	-0.48799294
247	0xbd272110	-0.040803015
248	0x3e35c0b4	0.17749292
249	0x3dbcedb7	0.09225028
250	0x3ed1f676	0.41008347
251	0xbe7cfe11	-0.24706294
252	0x3e861a23	0.26191816
253	0x3e7cffc6	0.24706945
254	0x3e2ecda5	0.17070635
255	0xbe17ce8e	-0.14824888

conv_3.att_src f4 [1, 4, 8]
0	0x3eb7d783	0.3590661
1	0x3f397e78	0.724586
2	0x3ec1aaf4	0.3782574
3	0x3f112259	0.56693035
4	0x3f6dd3b6	0.9290117
5	0xbf4d8a9a	-0.80289614
6	0xbef20419	-0.4726875
7	0x3ef7b135	0.48377386
8	0x3f222b54	0.63347363
9	0xbe70b8f5	-0.23508056
10	0xbdf5a63b	-0.119945966
11	0xbf4f0430	-0.80865765
12	0xbefd5223	-0.49476728
13	0x3dbd386a	0.09239276
14	0x3f10c4ae	0.5655011
15	0x3e8959e4	0.26826394
16	0x3e28088f	0.16409515
17	0x3f0954cb	0.5364501
18	0xbf875acf	-1.0574588
19	0x3f1c6adb	0.6110055
20	0x3f193189	0.5984121
21	0x3e616711	0.22011973
22	0xbf3e0398	-0.74224234
23	0x3e4297d6	0.19003233
24	0x3ea08d3a	0.31357747
25	0xbf40e6ef	-0.75352377
26	0x3f4f7a09	0.81045586
27	0x3eaddb6b	0.33956465
28	0x3f857662	1.0426753
29	0xbee1a048	-0.44067597
30	0xbeabe946	-0.3357641
31	0x3f8118b2	1.0085661

conv_3.att_dst f4 [1, 4, 8]
0	0x3e9762de	0.29567617
1	0x3e92bc64	0.28659356
2	0x3ed2b14f	0.411509
3	0xbf23d67c	-0.6399915
4	0xbe44ed25	-0.19231088
5	0x3e611afb	0.21982948
6	0xbf24f923	-0.6444265
7	0x3f4bacf2	0.7956077
8	0xbe8f99d7	-0.28047058
9	0xbe7e9701	-0.24862291
10	0xbf158d7f	-0.5841903
11	0xbeede82e	-0.46466202
12	0x3f466add	0.7750681
13	0xbe3aff5e	-0.18261477
14	0xbedf42f9	-0.43605784
15	0xbea8411c	-0.32862175
16	0x3f02b1ca	0.51052535
17	0xbec58ff2	-0.38586384
18	0x3f14b651	0.5809069
19	0xbf30d714	-0.69078183
20	0x3f2af203	0.6677553
21	0xbf2e4117	-0.6806807
22	0x3f0859f2	0.53262246
23	0x3e66abb2	0.22526434
24	0xbd270c76	-0.040783368
25	0x3f540fc4	0.82836556
26	0xbed76c57	-0.42074844
27	0x3e5624b7	0.20912443
28	0x3f001528	0.5003228
29	0x3f2f12c6	0.6838802
30	0xbb14b607	-0.0022691505
31	0xbdccb894	-0.09996143

conv_3.bias f4 [32]
0	0xbb08617f	-0.0020810065
1	0xbb972a51	-0.004613199
2	0xbbb48e4d	-0.0055101276
3	0xbb46b005	-0.0030317318
4	0xbbeedc59	-0.007289451
5	0xbc137642	-0.009000363
6	0xbc1349af	-0.0089897355
7	0x3c2f7254	0.01070841
8	0x3c3f53d5	0.011677702
9	0xb940a0f4	-0.00018370507
10	0x3aad443d	0.0013219189
11	0x3b8d7ff6	0.0043182326
12	0xbbde249f	-0.006779268
13	0xbc026739	-0.0079591805
14	0x3b721f11	0.0036944787
15	0x3bc592a1	0.0060294424
16	0x3b816217	0.003948461
17	0x3a702742	0.00091611233
18	0x3b80a204	0.003925564
19	0xbc83458b	-0.016024372
20	0xbc1a922e	-0.009434266
21	0x3a02ed1e	0.00049944397
22	0xbc429175	-0.0118755
23	0x3bce9735	0.0063046464
24	0xbcb7ea43	-0.022450572
25	0xbc05e833	-0.008173036
26	0xbb32b758	-0.0027269926
27	0xbbc99401	-0.0061516766
28	0x3c09e288	0.008415826
29	0xba0655ef	-0.00051244994
30	0xbb4531d6	-0.003008952
31	0x3a0e6fd4	0.0005433534

conv_3.lin.weight f4 [32, 64]
0	0xbebcb0d4	-0.3685366
1	0xbd570dd7	-0.052503433
2	0x3ced238f	0.02894762
3	0xbc5e70ee	-0.013576729
4	0x3ef7a22a	0.4836591
5	0x3c11b937	0.008894256
6	0xbe623884	-0.22091872
7	0xbdb214c8	-0.0869537
8	0x3e22c599	0.1589569
9	0x3e188eba	0.14898196
10	0x3d75a9fe	0.05997657
11	0xbe6c2274	-0.23060018
12	0xbe7f1adc	-0.2491259
13	0xbe9c6051	-0.30542234
14	0xbebb2845	-0.3655416
15	0xbe0a2bc4	-0.13493258
16	0xbe6e6e26	-0.23284206
17	0x3dd5417f	0.10412883
18	0xbebec105	-0.37256637
19	0xbe310597	-0.17287289
20	0xbc312fb2	-0.010814594
21	0xbe52dcd0	-0.20592046
22	0x3eb502a4	0.35353577
23	0x3f06f288	0.52713823
24	0xbebc2b89	-0.36751965
25	0x3e2897a3	0.16464095
26	0x3e3cbf13	0.18432264
27	0xbe65ee0d	-0.2245409
28	0xbebfc0ec	-0.37451875
29	0xbe9bda5f	-0.3044004
30	0xbcc0b9d6	-0.023526113
31	0xbe50d10d	-0.20392247
32	0xbe81e562	-0.25370318
33	0x3e205c3d	0.15660186
34	0x3e996d54	0.29966223
35	0x3d52dcc5	0.051480073
36	0xbeba1fb2	-0.36352307
37	0x3ebb0ff7	0.36535618
38	0x3e564dc6	0.20928106
39	0xbeb7c188	-0.3588984
40	0xbe876d97	-0.26450798
41	0x3eae9489	0.34097698
42	0x3de2ba8e	0.11070739
43	0xbef2d3eb	-0.47427306
44	0xbd8b54d9	-0.06803293
45	0xbe5e3fbc	-0.21704
46	0x3ec37a3c	0.38179195
47	0x3e1db052	0.15399292
48	0x3e714fc0	0.23565578
49	0xbc156210	-0.009117618
50	0xbfa8d982	-1.3191378
51	0x3dba33b0	0.0909189
52	0x3d8eda7d	0.06975267
53	0x3e815e73	0.25267372
54	0xbefd8f3b	-0.4952334
55	0x3c1fcfdd	0.009754148
56	0xbc3ff23a	-0.011715466
57	0x3deabc1f	0.114616625
58	0xbdd553fc	-0.104164094
59	0x3eecf71d	0.46282282
60	0xbe02848b	-0.12745874
61	0xbd240117	-0.0400401
62	0x3f373962	0.71571934
63	0x3e8db286	0.27675265
64	0x3d9c12b5	0.076207556
65	0x3e6a15be	0.22859856
66	0x3e902b5c	0.2815808
67	0x3d7d8209	0.06189159
68	0x3e2a4ae3	0.1663013
69	0x3d8bb827	0.06822234
70	0x3d25afb9	0.040450785
71	0xbd73da27	-0.05953422
72	0x3e47a0d5	0.19494946
73	0xbf056ac4	-0.52116036
74	0xbd333c61	-0.043758754
75	0xbdb80b39	-0.089865156
76	0x3d88b900	0.06675911
77	0x3d2ca7f5	0.042152364
78	0x3ec3a8e9	0.38214806
79	0xbc964603	-0.018343931
80	0x3e873cd5	0.264136
81	0xbd4a020c	-0.04931836
82	0x3eb6df53	0.35717258
83	0x3f04df14	0.5190289
84	0xbe48c492	-0.19606236
85	0xbd07b497	-0.03313121
86	0x3d505053	0.050857853
87	0x3e83ab69	0.25716713
88	0xbe7e86e2	-0.24856141
89	0x3dcc7fb5	0.09985296
90	0xbe0442d1	-0.12916113
91	0xbb2f0f9f	-0.0026712192
92	0xbb52cf8d	-0.0032167167
93	0x3e866bf3	0.26254234
94	0x3e2ba666	0.16762695
95	0xbdc78ad3	-0.097432755
96	0xbd192da2	-0.037397034
97	0xbe6de5ab	-0.23232143
98	0x3ec26e3a	0.3797472
99	0x3ec0b9cd	0.37641755
100	0x3d843284	0.064549476
101	0x3e416767	0.18887101
102	0x3f45d20c	0.7727363
103	0x3e38aad7	0.1803392
104	0xbe7d76ca	-0.24752346
105	0xbdaed97d	-0.08537576
106	0xbee9385f	-0.4555082
107	0xbf1e60f9	-0.6186672
108	0x3f061587	0.523766
109	0x3e898375	0.26858106
110	0x3ef8d927	0.48603174
111	0xbefedbc9	-0.49777058
112	0xbe66c192	-0.22534779
113	0xbde57ca6	-0.112054154
114	0xbf66724f	-0.9001817
115	0xbdc4be58	-0.09606618
116	0x3ee94677	0.45561573
117	0xbf082300	-0.53178406
118	0x3e99154a	0.29899055
119	0x3f7c667e	0.9859389
120	0x3ee0b616	0.4388892
121	0xbd959497	-0.07303732
122	0xbd3b280a	-0.04569248
123	0xbee06317	-0.438256
124	0xbefaa37a	-0.48952848
125	0x3e1e95a4	0.15486771
126	0xbdd4a82b	-0.10383638
127	0x3d8adc0a	0.0678025
128	0x3e33ce03	0.17559056
129	0x3cd089e7	0.025456382
130	0xbe5f58c9	-0.21811213
131	0x3ea9cad3	0.33162555
132	0xbeb17223	-0.34657392
133	0xbe2020ea	-0.15637556
134	0xbc396a24	-0.01131681
135	0x3ccb5fa1	0.024825873
136	0xbedf8b5f	-0.4366102
137	0xbe051dab	-0.12999599
138	0x3e10544e	0.1409466
139	0xbe814a73	-0.25252113
140	0x3eafe772	0.34356266
141	0x3e081d32	0.13292387
142	0xbe551d39	-0.20811929
143	0x3dce6bed	0.10079179
144	0x3dafaae8	0.0857752
145	0x3d11d379	0.035602067
146	0x3e456382	0.1927624
147	0x3ebb7100	0.3660965
148	0x3e0d5672	0.13802508
149	0xbe4b464b	-0.19851033
150	0x3ea1b55d	0.31583682
151	0x3f148b98	0.58025503
152	0x3e967ee2	0.2939368
153	0xbeaa787b	-0.33295044
154	0x3eaf6e33	0.34263763
155	0x3e834949	0.2564185
156	0x3f3a39d4	0.7274449
157	0x3eaeaf55	0.34118143
158	0x3e551211	0.20807673
159	0xbe342288	-0.17591298
160	0x3eac1902	0.3361283
161	0x3f2cccd0	0.6750002
162	0x3d42be3c	0.047544703
163	0x3dceba65	0.10094146
164	0xbd4f3925	-0.050591607
165	0xbe3aa093	-0.18225317
166	0xbc59619b	-0.0132679
167	0x3d60b8d7	0.054863777
168	0xbe79ae3e	-0.24382874
169	0xbe65d1fc	-0.22443384
170	0x3e4b8644	0.19875437
171	0xbe182a76	-0.14859948
172	0x3efb3545	0.4906408
173	0x3eb8e8c4	0.36115086
174	0x3eb07f9e	0.34472364
175	0xbe839c58	-0.25705218
176	0x3e5280d4	0.20556957
177	0x3cae31e6	0.021264028
178	0xbdf5a6f0	-0.119947314
179	0xbed0b63b	-0.4076403
180	0xbe06f1a7	-0.1317812
181	0x3cae4f09	0.021277921
182	0xbe7cdd81	-0.24693872
183	0x3d39b65c	0.045339927
184	0x3c5bf351	0.01342471
185	0xbeb2b69c	-0.34904945
186	0x3e809fb0	0.25121832
187	0x3e8c2e62	0.27379137
188	0xbdf505a3	-0.11963966
189	0x3e36f100	0.17865372
190	0xbf69f495	-0.9138883
191	0xbea9ed0d	-0.33188668
192	0x3f05d505	0.52278167
193	0x3eb35c1a	0.35031205
194	0x3ea6c89b	0.32574925
195	0xbc4adddd	-0.012381998
196	0xbe28cada	-0.16483632
197	0xbf0359d6	-0.51308954
198	0x3ed61c13	0.41818294
199	0xbe204438	-0.15651023
200	0xbea5ab29	-0.32357147
201	0xbe7170cb	-0.23578183
202	0xbea46c36	-0.32113808
203	0x3ed669a3	0.4187747
204	0x3e13523c	0.14386839
205	0xbdace331	-0.08441771
206	0xbe2f5440	-0.17121983
207	0x3d88e803	0.06684878
208	0xbe1e0be6	-0.15434226
209	0xbeb06a6c	-0.34456193
210	0x3e9235ea	0.28556758
211	0x3d46c7d0	0.0485304
212	0x3e532bf2	0.20622233
213	0x3e48c969	0.19608082
214	0x3f0dd762	0.55406773
215	0xbf63d0eb	-0.8899066
216	0xbdd749b9	-0.10512108
217	0xbe332665	-0.17495115
218	0xbea6559e	-0.32487196
219	0xbdc48437	-0.095955305
220	0xbe3c2e53	-0.18377046
221	0x3e98adab	0.29819998
222	0x3eb817d0	0.35955667
223	0x3e77efdd	0.24212594
224	0x3e242de4	0.16033131
225	0xbd92a851	-0.0716101
226	0x3dd70b9c	0.10500261
227	0x3e1bdc3b	0.1522073
228	0xbf156236	-0.58352983
229	0x3e00702c	0.1254279
230	0x3d879e8b	0.066220365
231	0xbf073d41	-0.5282784
232	0xbe8eba09	-0.2787631
233	0x3e07ac77	0.13249384
234	0xbea75542	-0.32682234
235	0x3e23d0cc	0.15997618
236	0xbe384b8f	-0.17997573
237	0xbe84eedc	-0.25963485
238	0x3e16d93c	0.14731306
239	0x3e85ebc9	0.26156452
240	0xbd9dc3ad	-0.07703338
241	0x3e2d5885	0.16928299
242	0xbe3c749f	-0.18403862
243	0x3ebd7231	0.37001184
244	0x3e0665af	0.13124727
245	0x3e713ab6	0.23557553
246	0x3e1ad5b5	0.15120585
247	0xbe9655b4	-0.2936226
248	0x3ddd5b17	0.1080839
249	0x3e527555	0.20552571
250	0xbedae8c1	-0.42755702
251	0xbdb85423	-0.09000423
252	0xbbb21f08	-0.005435828
253	0xbf5bc397	-0.8584532
254	0xbea797e9	-0.32733086
255	0xbe21217c	-0.1573543

batch_norm_conv_1.weight f4 [32]
0	0x3f9d4a46	1.2288291
1	0x3f775aec	0.9662311
2	0x3fa1b4c4	1.263329
3	0x3f8e1e9f	1.1103095
4	0x3f431b2a	0.76213324
5	0x3f81ff54	1.0156045
6	0x3f9ad89a	1.2097352
7	0x3f6797ac	0.9046581
8	0x3f813a50	1.009592
9	0x3f81581c	1.0105014
10	0x3f683cc0	0.907177
11	0x3f85f52b	1.0465444
12	0x3f21aad1	0.6315127
13	0x3f6c3571	0.92269045
14	0x3f2bb179	0.67067677
15	0x3f5c08c1	0.8595086
16	0x3f3e19ff	0.74258417
17	0x3f92f8fc	1.1482234
18	0x3f35657c	0.7085798
19	0x3f538833	0.826297
20	0x3f8781aa	1.0586445
21	0x3f5b9f85	0.8579028
22	0x3fa04c77	1.2523335
23	0x3f7ca0da	0.9868294
24	0x3f8ff70e	1.124727
25	0x3f880b5c	1.0628467
26	0x3f9f8ef5	1.2465502
27	0x3f8a0a9b	1.0784487
28	0x3f5b906d	0.8576725
29	0x3f517400	0.81817627
30	0x3f427dd8	0.7597327
31	0x3f9bd423	1.2174114

batch_norm_conv_1.bias f4 [32]
0	0xbe095c61	-0.13414146
1	0xbe53757c	-0.20650285
2	0xbf4443c4	-0.766659
3	0xbeac4195	-0.33643785
4	0x3c81254e	0.015764859
5	0xbe478725	-0.19485147
6	0xbe181bb5	-0.1485432
7	0x3c6431e8	0.013927914
8	0x3e98d8d2	0.2985292
9	0xbe2c07a7	-0.16799794
10	0xbe80a1f6	-0.25123566
11	0xbe133d88	-0.14378941
12	0x3e81ed0f	0.25376174
13	0x3e0148ee	0.12625477
14	0x3da6572d	0.08122096
15	0x3d1f215d	0.038850177
16	0xbe87a890	-0.2649579
17	0xbd5ff51c	-0.054677114
18	0xbe8d270a	-0.27568847
19	0x3ea8957e	0.32926553
20	0xbebe5b87	-0.37179205
21	0xbdf9ac7a	-0.121911004
22	0xbef08f92	-0.46984535
23	0xbe951b37	-0.29122326
24	0xbe0696cb	-0.1314346
25	0xbd957d0e	-0.07299243
26	0x3bfb3cd8	0.0076671652
27	0x3d4c7e45	0.049925108
28	0x3d940d9f	0.072291605
29	0xbd2874d4	-0.04112704
30	0xbe4bdde3	-0.19908862
31	0xbea7994c	-0.32734144

batch_norm_conv_1.running_mean f4 [32]
0	0xbf3061d5	-0.6889928
1	0x3f3d273f	0.7388801
2	0xbe6d7f78	-0.23193157
3	0xbf60a9e8	-0.87759256
4	0xbfa52d61	-1.2904474
5	0x3ffb0188	1.9609842
6	0x3f944ae6	1.1585357
7	0xbbb5b28d	-0.0055449666
8	0x3ed3fb21	0.41402534
9	0xbde4893a	-0.111589864
10	0xbe0670e9	-0.1312901
11	0xbe905153	-0.28187045
12	0xbf1f5b11	-0.6224833
13	0x3ff5b619	1.9196197
14	0xba2f0329	-0.0006676191
15	0x3f77c705	0.96788055
16	0x3e8dbc56	0.2768275
17	0xbeae8299	-0.34084013
18	0x3e349034	0.17633134
19	0x3f02bd2c	0.51069903
20	0x3e91b84c	0.2846092
21	0x403dae40	2.9637604
22	0xbf087faf	-0.5331983
23	0xbf0bd1ca	-0.5461699
24	0x3f289c4a	0.6586348
25	0xbe5f447e	-0.21803471
26	0xbf71cc78	-0.9445262
27	0x3fa604e6	1.2970245
28	0xbee2096c	-0.44147813
29	0x3f7859c7	0.9701199
30	0xbd7d68ef	-0.06186765
31	0x3fbc1df7	1.4696645

batch_norm_conv_1.running_var f4 [32]
0	0x3f1ebb90	0.6200495
1	0x3fcde47a	1.608535
2	0x3ed178da	0.40912515
3	0x3ed46220	0.41481113
4	0x3f2b7379	0.6697307
5	0x407bf8cd	3.9370606
6	0x3f67fe28	0.90622187
7	0x3e5a3104	0.2130776
8	0x3ea4deb1	0.3220115
9	0x3ee5ce32	0.44883877
10	0x3ebb7ac7	0.3661711
11	0x3edd8071	0.43262056
12	0x3e36127e	0.17780492
13	0x403b89f1	2.9302943
14	0x3e880232	0.26564175
15	0x3ee42729	0.44561127
16	0x3e9dbae5	0.30806652
17	0x3f34c96a	0.70619833
18	0x3fa1985c	1.2624621
19	0x3fd7ad39	1.6849738
20	0x3cf4988f	0.029857902
21	0x3ebb9f7c	0.36645114
22	0x3f91ef7b	1.1401209
23	0x3eddc453	0.43313846
24	0x3d42c487	0.047550704
25	0x3dc0d7b5	0.09416143
26	0x3f31da0e	0.6947335
27	0x3fe3035b	1.7735399
28	0x3e2590f5	0.16168578
29	0x3e13857f	0.14406393
30	0x3d49e31f	0.049288865
31	0x40662cab	3.5964763

batch_norm_conv_2.weight f4 [64]
0	0x3f64234c	0.8911636
1	0x3f894759	1.0724899
2	0x3f9f7649	1.2457973
3	0x3f843171	1.0327588
4	0x3f7a9da1	0.9789677
5	0x3f791404	0.97296166
6	0x3f70da0d	0.9408272
7	0x3f82fe78	1.0233908
8	0x3f6d7a94	0.92765164
9	0x3f8fbee2	1.1230128
10	0x3f5a29e5	0.85220176
11	0x3f72907a	0.94751704
12	0x3f6917cd	0.9105194
13	0x3f90fdab	1.1327413
14	0x3f77585d	0.96619207
15	0x3f806b23	1.0032696
16	0x3f509c11	0.8148814
17	0x3f81c244	1.013741
18	0x3f95cad9	1.1702529
19	0x3f8fb263	1.1226314
20	0x3f572d94	0.8405392
21	0x3f66df4b	0.9018447
22	0x3f88f741	1.0700456
23	0x3f93f9f4	1.1560655
24	0x3f6fec2c	0.93719745
25	0x3f68abae	0.9088696
26	0x3f3ac26d	0.7295292
27	0x3f7f72e6	0.99784696
28	0x3f83e749	1.0304958
29	0x3f948f0c	1.1606154
30	0x3f7d83de	0.9902934
31	0x3f84ae9b	1.0365785
32	0x3f5c05e4	0.8594649
33	0x3f6ec900	0.9327545
34	0x3f6f9182	0.935814
35	0x3f7333d1	0.9500094
36	0x3f752a9a	0.9576813
37	0x3f84bd21	1.0370218
38	0x3f7937ee	0.97350967
39	0x3f8dad8e	1.106859
40	0x3f6bc19c	0.920923
41	0x3f8a182b	1.0788625
42	0x3f6f3967	0.93446964
43	0x3f5f05cc	0.8711822
44	0x3f9254fe	1.1432188
45	0x3f6edb60	0.9330349
46	0x3f2aa27e	0.66654193
47	0x3f5b8420	0.8574848
48	0x3f7e91a5	0.99440986
49	0x3f51765d	0.81821233
50	0x3f971944	1.1804585
51	0x3f87f780	1.0622406
52	0x3f814d76	1.0101764
53	0x3f870dc6	1.0551078
54	0x3f99d89e	1.2019231
55	0x3f9cb90d	1.2243973
56	0x3f756881	0.95862585
57	0x3f669b4f	0.9008073
58	0x3f887766	1.0661438
59	0x3f8cdcdc	1.1004901
60	0x3f72fa59	0.9491325
61	0x3f8a46b7	1.080283
62	0x3f89a3c2	1.07531
63	0x3f7e4611	0.9932566

batch_norm_conv_2.bias f4 [64]
0	0xbe1c8542	-0.15285209
1	0x3de987ad	0.11402831
2	0xbc53cc8c	-0.012927186
3	0xbda67c98	-0.08129233
4	0xbe5525e4	-0.20815235
5	0xbd8d1944	-0.06889585
6	0x3de260e3	0.11053636
7	0xbe6fd44a	-0.23420826
8	0xbdd4c19d	-0.10388491
9	0xbda2733a	-0.07932134
10	0x3d3e0f34	0.046401218
11	0xbd799093	-0.060928892
12	0xbe0ec1f5	-0.13941176
13	0xbeddbb7d	-0.43307105
14	0xbe504b97	-0.20341335
15	0xbda1024d	-0.07861767
16	0xbdc38787	-0.09547334
17	0xbd3985fc	-0.045293793
18	0xbea0c4f8	-0.31400275
19	0xbe17c96c	-0.1482293
20	0xbe8e8cce	-0.278418
21	0xbd1dfa61	-0.038568858
22	0xbd886067	-0.06659012
23	0xbeef367d	-0.4672126
24	0x3d4c466c	0.049871847
25	0xbd18309a	-0.037155725
26	0x3f0e8db6	0.55684984
27	0xbe1cc12c	-0.15308064
28	0xbe3cdc69	-0.18443455
29	0xbd0f5549	-0.034993444
30	0xbd8b7f2a	-0.06811364
31	0xbde747a8	-0.11292964
32	0xbe8c24a1	-0.27371696
33	0x3e2a36af	0.16622423
34	0xbe5f70f1	-0.21820427
35	0x3e5e19e6	0.21689567
36	0xbe382d2f	-0.17985986
37	0xbc5024df	-0.012704103
38	0xbe4df67a	-0.20113555
39	0x3d2809cb	0.041024964
40	0xbe9c4cde	-0.30527395
41	0x3e673192	0.22577503
42	0x3e8df88b	0.27728686
43	0xbeadd910	-0.33954668
44	0xbec087bf	-0.37603566
45	0xbe51aeaa	-0.20476785
46	0xbc50ceb1	-0.012744592
47	0x3e2af7be	0.16696069
48	0xbd52597f	-0.05135488
49	0x3ca86354	0.020555176
50	0xbeae87c8	-0.34087968
51	0xbdb9b5bd	-0.09067867
52	0xbe2a1723	-0.16610388
53	0x3c377fa5	0.011199866
54	0x3e41ab40	0.18912983
55	0xbe483dca	-0.1955482
56	0xbe80d0c2	-0.2515927
57	0xbdfa2629	-0.1221431
58	0x3c87ca93	0.016576087
59	0xbebc5898	-0.36786342
60	0xbe828541	-0.2549229
61	0xbc3e95f3	-0.01163243
62	0xbd8b2d7d	-0.067957856
63	0x3c94a298	0.018143937

batch_norm_conv_2.running_mean f4 [64]
0	0xbee9e2e5	-0.4568092
1	0xbfaab0ea	-1.333524
2	0xbfd54fcf	-1.6664981
3	0x3f39d963	0.7259733
4	0xbd0ca929	-0.03434101
5	0x3eda04cb	0.42581782
6	0x3d6561c5	0.056001443
7	0xbf757d8b	-0.9589469
8	0xbeb91c0b	-0.36154208
9	0xbee07c93	-0.43845043
10	0xbc64f76f	-0.013975008
11	0xbf864081	-1.0488435
12	0x3d4d5e00	0.050138474
13	0x3f075a97	0.52872604
14	0xbd94c3cd	-0.072639085
15	0xbf52535f	-0.82158464
16	0xbe49804c	-0.19677848
17	0x3ed095e1	0.4073935
18	0x3ee2e916	0.44318455
19	0x3f28843b	0.6582677
20	0x3e94c2e2	0.29054934
21	0xbf5b4a84	-0.85660577
22	0x3f65d4af	0.89777654
23	0x3ee30b33	0.44344482
24	0xbf2214a3	-0.6331274
25	0x3f2e16a3	0.6800329
26	0xbede08b4	-0.43366015
27	0xbe347e96	-0.17626414
28	0x3f9b062b	1.2111257
29	0x3edd183c	0.43182552
30	0xbe2f4ccd	-0.17119141
31	0xbee9db80	-0.45675278
32	0x3f9092c9	1.1294795
33	0xbf7252fa	-0.9465786
34	0xbca7221e	-0.02040201
35	0xbebdf5eb	-0.37101683
36	0xbea3abc1	-0.31966975
37	0x3f419fc1	0.7563439
38	0x3dd9cd76	0.10634892
39	0xbfb98339	-1.4493171
40	0xbe85fa15	-0.2616736
41	0xbe1d356d	-0.15352412
42	0xbfd844b3	-1.6895965
43	0x3decd385	0.11563782
44	0x3fc5aba9	1.5443012
45	0x3e8e9e42	0.27855116
46	0x3ecea938	0.4036348
47	0x3f1eca5c	0.62027526
48	0xbf0baa15	-0.545564
49	0xbec8d060	-0.39221478
50	0xbef9c109	-0.48780087
51	0x3e93ed97	0.28892204
52	0xbeb467c5	-0.3523542
53	0x3d09e0ff	0.03366184
54	0xbf090daf	-0.53536505
55	0x3eb77853	0.35833988
56	0xbccfec61	-0.025381269
57	0x3f08ac5f	0.5338802
58	0xbf39a51b	-0.72517556
59	0x3f0447f2	0.5167228
60	0x3e2139a0	0.15744638
61	0x3e5698c4	0.20956713
62	0x3f514a18	0.81753683
63	0x3f376f3c	0.71654105

batch_norm_conv_2.running_var f4 [64]
0	0x3f4b04d7	0.7930426
1	0x3f3ec533	0.7451965
2	0x3fc0d541	1.506508
3	0x3f1935b2	0.5984756
4	0x3e9d5e26	0.30735892
5	0x3f4315c5	0.7620509
6	0x3f16ab19	0.58854824
7	0x3f209e04	0.6274111
8	0x3f24059e	0.6407107
9	0x3edd033e	0.43166536
10	0x3e934969	0.28766945
11	0x40139dd4	2.306508
12	0x3e430e0f	0.19048332
13	0x3eeae1d6	0.45875424
14	0x3f1a9352	0.6038104
15	0x3e92889c	0.2861985
16	0x3e775400	0.24153137
17	0x3ebb0e2d	0.36534253
18	0x3f10640d	0.56402665
19	0x3ead3684	0.33830655
20	0x3ee35728	0.44402432
21	0x3f86df11	1.0536824
22	0x3f38bc94	0.7216275
23	0x3f0fc3ec	0.5615833
24	0x3f106c8e	0.5641564
25	0x3f0c5843	0.54822177
26	0x3f06dd67	0.52681583
27	0x3e8efd57	0.27927658
28	0x3efe1643	0.4962636
29	0x3f30e8bd	0.6910513
30	0x3f9b01ba	1.2109902
31	0x3ecd0007	0.40039083
32	0x3e9b973a	0.30388814
33	0x3f821bbc	1.0164714
34	0x3f6f7eb2	0.93552697
35	0x3f0aa71e	0.5416125
36	0x3ed266d7	0.41094086
37	0x3f228bea	0.6349474
38	0x3ed809d2	0.42194992
39	0x3fb0eaa5	1.3821608
40	0x3dc55e66	0.09637146
41	0x3f1b9b79	0.6078411
42	0x3f1648c6	0.58704793
43	0x3d6d7bda	0.057979442
44	0x3e492105	0.19641502
45	0x3ee92b02	0.45540625
46	0x3ff09741	1.8796159
47	0x3e751319	0.23933066
48	0x3e33be53	0.17553072
49	0x3f0b468c	0.5440452
50	0x3e880cb5	0.26572195
51	0x3f9c15ba	1.219413
52	0x3f366ff2	0.71264565
53	0x3f644ad9	0.8917671
54	0x3fc48c18	1.5355253
55	0x3ea65d48	0.32493043
56	0x3ea709d7	0.32624695
57	0x3e90aa8c	0.28255117
58	0x3ea95411	0.3307195
59	0x3e9d9f0a	0.307854
60	0x3e800af4	0.25008357
61	0x3e892fd3	0.267943
62	0x3f28137c	0.6565473
63	0x3fab57d6	1.338618

batch_norm_conv_3.weight f4 [32]
0	0x3f84331c	1.0328097
1	0x3f91f2c1	1.1402208
2	0x3f85ff1c	1.0468478
3	0x3f63e316	0.8901838
4	0x3f39b8c1	0.7254754
5	0x3f72e006	0.9487308
6	0x3f5d8541	0.86531454
7	0x3f5bc434	0.8584626
8	0x3f4e59e3	0.80605906
9	0x3f89a2d7	1.075282
10	0x3f7b4d22	0.9816457
11	0x3f83cc78	1.0296774
12	0x3fb2aa84	1.3958287
13	0x3f675ac8	0.90372896
14	0x3f76ef7e	0.96459186
15	0x3f7a14f5	0.9768823
16	0x3f7390e8	0.95142984
17	0x3f886a5e	1.0657461
18	0x3f770caf	0.9650373
19	0x3f7d676f	0.9898595
20	0x3f738f87	0.9514088
21	0x3f7f07f9	0.9962154
22	0x3f49eb2c	0.7887447
23	0x3f6c8f1f	0.92405885
24	0x3f9c5896	1.2214534
25	0x3f682dee	0.90695083
26	0x3f4d84c7	0.8028073
27	0x3f95bf77	1.1699055
28	0x3f90b699	1.1305724
29	0x3f5ff6e5	0.87486106
30	0x3f626bdb	0.88445824
31	0x3f7432ee	0.9539021

batch_norm_conv_3.bias f4 [32]
0	0xbc8f79a4	-0.017514057
1	0xbd0fbf98	-0.035094827
2	0x3e77dc83	0.24205212
3	0xbd465daf	-0.048429187
4	0xbdbbd660	-0.09171748
5	0xbe8bdc08	-0.27316308
6	0xbd61d982	-0.055139072
7	0xbcb0aa52	-0.02156559
8	0xbe3a4d31	-0.18193509
9	0x3da43dbd	0.08019588
10	0xbd4e08d6	-0.050301395
11	0x3e9637d8	0.2933948
12	0xbd937b7c	-0.07201287
13	0xbe880fce	-0.26574558
14	0x3deb817f	0.11499309
15	0x3b1d44f9	0.002399741
16	0x3d0d7ec6	0.03454473
17	0x3f028043	0.5097696
18	0x3e1110bd	0.14166541
19	0xbd87a971	-0.06624115
20	0xbe2e1d4a	-0.1700336
21	0xbe3dae98	-0.18523633
22	0xbe539236	-0.20661244
23	0x3ca2541d	0.019815499
24	0x3e5ee327	0.21766339
25	0x3e1131fe	0.14179227
26	0xbe73d16b	-0.23810355
27	0x3d176d8e	0.036969714
28	0xbe2cc006	-0.16870126
29	0xbe9081a8	-0.2822392
30	0xbdda413d	-0.106569745
31	0x3df9c888	0.121964514

batch_norm_conv_3.running_mean f4 [32]
0	0xbefdf8c2	-0.4960385
1	0x3f8be263	1.0928463
2	0x3f696d73	0.9118263
3	0xbf31ceb3	-0.6945602
4	0xbf9db6e8	-1.2321444
5	0x3f81541e	1.0103796
6	0x3f649223	0.89285487
7	0xc00913bc	-2.1418295
8	0x3fc4d8a7	1.5378617
9	0xbeeff047	-0.46863005
10	0x3e096d98	0.13420713
11	0xc011ef51	-2.2802317
12	0x401c3ec7	2.4413316
13	0x3d9cd88f	0.07658493
14	0x3f452417	0.77008194
15	0xbf44f373	-0.76933974
16	0x3f6c1e27	0.9223351
17	0xbf47ed93	-0.78096884
18	0x3f6cefc7	0.9255337
19	0x3e886d25	0.2664577
20	0x3f8635c4	1.0485158
21	0x3fb1f137	1.3901738
22	0x3e990dd9	0.29893377
23	0xc00dde1c	-2.2166815
24	0xc024f477	-2.577421
25	0xbfebef26	-1.8432357
26	0x3ed5b90d	0.41742745
27	0xc017e354	-2.37325
28	0x3fa3beb2	1.279257
29	0xbf42a3c1	-0.7603112
30	0x3fc8b67b	1.5680689
31	0xbfc7ad16	-1.5599697

batch_norm_conv_3.running_var f4 [32]
0	0x4014928b	2.3214443
1	0x405ace68	3.418848
2	0x4063528b	3.551913
3	0x404edcbc	3.2322226
4	0x40ce7d31	6.452782
5	0x3f4385f2	0.7637626
6	0x40d5afbb	6.6777015
7	0x40d8c9bf	6.774627
8	0x40224061	2.5351794
9	0x40925f4c	4.574133
10	0x40916a67	4.5442386
11	0x4104f002	8.308596
12	0x409fd452	4.994668
13	0x403fd101	2.9971316
14	0x40082fbd	2.1279137
15	0x3fea3e94	1.8300347
16	0x403aeac7	2.9205797
17	0x412839fa	10.514154
18	0x410453c3	8.27045
19	0x40fa1163	7.8146224
20	0x40099235	2.1495488
21	0x4057249c	3.3616095
22	0x401e0e93	2.4696395
23	0x407e2018	3.9707088
24	0x40c0a359	6.01994
25	0x4092f871	4.5928273
26	0x40544d11	3.3172038
27	0x40ac3602	5.3815928
28	0x404e826f	3.226711
29	0x405faee5	3.4950497
30	0x413d46c7	11.82978
31	0x410a44bc	8.641781

dense_1.weight f4 [16, 32]
0	0xbefc9d6d	-0.49338856
1	0x3e6cace5	0.23112829
2	0xbe4d3b43	-0.20042138
3	0xbe8c0e6f	-0.27354762
4	0x3da00985	0.07814316
5	0x3dfbc94a	0.12294252
6	0x3ecd8388	0.40139413
7	0xbccd13dd	-0.025033886
8	0x3cb58854	0.022159733
9	0xbefc5c89	-0.4928935
10	0xbc7ae349	-0.015312978
11	0xbeaa686a	-0.33282787
12	0xbf8e4778	-1.111556
13	0x3e99a330	0.30007315
14	0x3d6dba9c	0.058039293
15	0xbe6c97dc	-0.23104805
16	0x3ecd85ab	0.40141043
17	0x3eaf2017	0.3420417
18	0x3f572cbb	0.8405263
19	0xbf0f83c2	-0.5606042
20	0x3ec3d9e9	0.3825219
21	0xbe83f77d	-0.25774756
22	0x3d88eaf3	0.06685438
23	0xbebb39cd	-0.36567536
24	0xbed35372	-0.412746
25	0xbd8ba093	-0.068177365
26	0xbe8942b9	-0.26808718
27	0xbeebe880	-0.4607582
28	0x3d4fd00a	0.05073551
29	0x3e1bfcca	0.1523315
30	0x3e551e7f	0.20812415
31	0x3d0cdd53	0.03439076
32	0xbec8002c	-0.3906263
33	0x3eb2321c	0.34803855
34	0x3f09937f	0.53740686
35	0x3e10cfcd	0.1414177
36	0x3d4f94c9	0.050679002
37	0xbec45280	-0.38344193
38	0xbb271ec9	-0.0025500527
39	0xbd8e4b31	-0.069479354
40	0x3e9616e5	0.29314342
41	0xbea93418	-0.33047557
42	0xbe4d2453	-0.20033388
43	0xbed68c2e	-0.41903824
44	0x3f9a50b7	1.2055882
45	0xbf181db8	-0.5942035
46	0x3d8a4149	0.067507334
47	0xbf0d5f92	-0.55223954
48	0x3ec29511	0.38004354
49	0xbd0ad944	-0.033898607
50	0xbed054b4	-0.40689623
51	0xbe201637	-0.15633474
52	0x3e7cc854	0.24685794
53	0x3e4798ef	0.19491933
54	0x3e0b6c00	0.13615417
55	0xbee312a8	-0.4435017
56	0xbe011b51	-0.12608077
57	0x3cd3d61b	0.02585893
58	0xbede7f55	-0.43456522
59	0xbe45e722	-0.19326451
60	0xbe15df5c	-0.14635986
61	0x3e8192b9	0.25307253
62	0x3ef50358	0.47854114
63	0x3eae0f77	0.33996174
64	0xbf0fd27a	-0.56180537
65	0x3f261f67	0.64891666
66	0x3f74aa8a	0.9557272
67	0x3eac0c4a	0.33603126
68	0xbf3ac3e3	-0.7295515
69	0xbeb02307	-0.34401724
70	0xbf05e9f9	-0.5231014
71	0x3ec4f09a	0.38464814
72	0xbe04f4e2	-0.1298404
73	0x3f187eb6	0.59568346
74	0x3cdec72e	0.027194586
75	0xbe23d127	-0.15997754
76	0x3f4df62f	0.8045377
77	0x3dceace8	0.10091573
78	0xbf03ccec	-0.5148456
79	0xbe4b8315	-0.19874223
80	0x3e60b5e6	0.21944389
81	0xbccde025	-0.025131295
82	0x3f157e16	0.58395517
83	0x3f52038e	0.82036674
84	0xbc6994a5	-0.014256631
85	0x3ea3b2c0	0.31972313
86	0xbde72f6b	-0.11288341
87	0xbdb271b3	-0.08713093
88	0xbca8b806	-0.020595562
89	0xbe5c0849	-0.21487536
90	0xbd46c216	-0.04852494
91	0xbec810a2	-0.3907519
92	0x3e197b52	0.14988449
93	0xbeafb659	-0.34318808
94	0xbe0dd0ad	-0.13849135
95	0x3b9d7535	0.004805232
96	0xbe93a340	-0.28835487
97	0xbd27bbce	-0.04095059
98	0xbdbabf29	-0.09118492
99	0x3e6dd6f6	0.23226532
100	0xbea5fc31	-0.3241897
101	0xbf19961e	-0.59994686
102	0xbf09bbaa	-0.5380198
103	0x3ea0b3dc	0.31387222
104	0x3ea850a5	0.32874027
105	0x3e3172fa	0.17329016
106	0xbf4f603d	-0.8100622
107	0xbf143817	-0.57898086
108	0x3e6a756f	0.2289636
109	0x3cbd657f	0.023119686
110	0xbdf395b3	-0.11893787
111	0xbf3ecfd5	-0.74535877
112	0xbdb1f11d	-0.08688567
113	0xbe2c3715	-0.16817887
114	0x3d420dab	0.047376316
115	0xbf15d009	-0.5852056
116	0xbeeb9865	-0.46014705
117	0x3e0b5ca7	0.13609563
118	0x3e9100d5	0.28320947
119	0x3d8c8362	0.06860997
120	0x3f04e54e	0.5191239
121	0xbf0ce9c7	-0.55044216
122	0x3ead25b0	0.33817816
123	0xbe8ed86c	-0.27899492
124	0xbe8d18d3	-0.27558002
125	0xbf0233cd	-0.5086029
126	0xbf0fc819	-0.561647
127	0xbe125f4d	-0.14294167
128	0x3daf62c0	0.08563757
129	0xbec995fa	-0.39372236
130	0x3ee21d6a	0.44163066
131	0xbdbd2298	-0.09235114
132	0xbe0feba1	-0.14054729
133	0xbed77f56	-0.42089337
134	0xbf22f066	-0.6364807
135	0xbf067418	-0.52520895
136	0x3e94b42d	0.29043713
137	0xbdc20d91	-0.09475244
138	0xbefee492	-0.4978376
139	0xbea363e4	-0.31912148
140	0x3eab2999	0.33430174
141	0xbee334e0	-0.44376278
142	0xbf20a37a	-0.62749445
143	0x3e9ef8f7	0.3104932
144	0x3de412af	0.11136376
145	0xbee0c2dd	-0.4389867
146	0xbf40045d	-0.7500666
147	0xbe282a01	-0.16422273
148	0xbf4ae6c9	-0.792584
149	0x3d0491c7	0.032365587
150	0xbea891d8	-0.3292377
151	0xbeb27f6f	-0.3486285
152	0xbeb3981b	-0.35076985
153	0xbe096d60	-0.1342063
154	0x3f6b9cf4	0.92036366
155	0x3ef42dad	0.47691098
156	0xbea9a80f	-0.3313603
157	0xbe238c1c	-0.15971416
158	0xbd2e9ca4	-0.042629853
159	0xbebd47ed	-0.36968938
160	0x3dce48e2	0.10072495
161	0xbf56565d	-0.8372553
162	0x3ea66f8b	0.32506976
163	0xbec5a8fa	-0.3860548
164	0xbe5478fc	-0.20749277
165	0x3d27d83c	0.0409777
166	0xbe8f3ab0	-0.27974463
167	0x3ea26fa2	0.31725794
168	0x3e8c1cad	0.27365628
169	0x3ecb23e1	0.3967581
170	0xbe60de01	-0.21959688
171	0xbe421349	-0.18952669
172	0xbdbd26a4	-0.09235886
173	0x3e604198	0.21900022
174	0x3db0a25a	0.08624716
175	0xbf1ef6e5	-0.6209548
176	0xbea34ca4	-0.3189441
177	0xbf0d32e7	-0.55155796
178	0xbeab918e	-0.33509487
179	0x3e3884df	0.18019436
180	0xbe946662	-0.28984362
181	0x3ecf6444	0.40506184
182	0xbf35e806	-0.71057165
183	0xbf1c9520	-0.61165047
184	0x3e21a15f	0.15784214
185	0x3e064c61	0.13115074
186	0x3ed58bd1	0.41708234
187	0x3ef8fcc5	0.48630348
188	0xbf1741f8	-0.59085035
189	0xbd747d21	-0.059689645
190	0xbef14143	-0.47120103
191	0xbe85ac41	-0.26107982
192	0xbf083beb	-0.5321643
193	0x3eaa15db	0.332198
194	0xbe210e00	-0.15727997
195	0x3e01e445	0.12684734
196	0xbed925f8	-0.4241178
197	0x3e913145	0.28357902
198	0x3e0059b8	0.12534225
199	0x3f2e744b	0.681462
200	0x3f05bea1	0.52244
201	0xbe23ac8c	-0.1598379
202	0xbddf445c	-0.109017104
203	0x3e45fce6	0.19334754
204	0x3faf70bb	1.3706278
205	0x3ec25fd5	0.3796374
206	0x3ee12975	0.43976942
207	0xba2f5bbd	-0.000668939
208	0x3e1e0e76	0.15435204
209	0x3cf5866f	0.02997133
210	0x3e9687cd	0.29400483
211	0x3e8b1336	0.27163094
212	0xbec2d82b	-0.38055548
213	0x3d0d118b	0.03444056
214	0xbe9be696	-0.3044936
215	0xbe61d167	-0.22052537
216	0xbe3d5c71	-0.18492295
217	0x3f0ebd91	0.55758005
218	0xbc2b33f1	-0.0104493955
219	0xbeade77e	-0.33965677
220	0xbee3ffc9	-0.44531086
221	0x3e0bc0fa	0.13647833
222	0x3e7ec147	0.24878417
223	0xbf0cb906	-0.54969823
224	0x3bc57c8c	0.00602681
225	0xbf5cbd11	-0.8622599
226	0xbf962409	-1.1729747
227	0xbdf564b4	-0.11982098
228	0x3e302e42	0.17205146
229	0x3f182e24	0.59445405
230	0xbf0fb633	-0.5613739
231	0x3de0e432	0.10981025
232	0xbde8fc12	-0.113762036
233	0xbec128b8	-0.37726378
234	0xbecb79e4	-0.39741433
235	0x3de46328	0.11151725
236	0xbebc7bd9	-0.36813238
237	0xbc2de282	-0.010613086
238	0xbf0509a8	-0.5196786
239	0x3f07d3fe	0.5305785
240	0x3f49b148	0.78786135
241	0x3e085971	0.13315369
242	0xbe09c671	-0.13454606
243	0xbd867a82	-0.06566335
244	0x3ef05996	0.4694335
245	0xbddcff1c	-0.10790846
246	0x3f1e8f78	0.61937666
247	0xbded91d2	-0.11600079
248	0xbf2694ac	-0.65070605
249	0x3ee8993b	0.45429406
250	0x3daded65	0.08492545
251	0xbed2adf7	-0.4114835
252	0x3c449034	0.011997271
253	0xbf03dd9f	-0.5151004
254	0xbddce4cb	-0.10785826
255	0x3d228951	0.039681736

dense_1.bias f4 [16]
0	0xbdae5fb2	-0.08514346
1	0xbeac700d	-0.33679238
2	0x3dc07809	0.09397895
3	0x3ebdda92	0.37080818
4	0x3e1eded7	0.15514694
5	0xbe930ad9	-0.28719214
6	0xbe3383a7	-0.1753069
7	0xbe80ce77	-0.2515752
8	0xbe3a7033	-0.18206863
9	0x3df0416b	0.117312275
10	0xbe87c826	-0.2651989
11	0xbe9f8ceb	-0.311622
12	0xbdaa3762	-0.08311345
13	0xbda6b9d1	-0.081409104
14	0x3d9614a3	0.07328155
15	0xbe41b1b2	-0.18915442
